hw1/weight.npy (npy, 568 bytes, 1 tensors)

array f8 [55]
00000000: 74fc c4be 5e2d b2bf 0daf 8226 6048 e63f
00000010: 92e0 0e10 dd02 28c0 2496 e5b9 677e 3040
00000020: e1e1 a6ec 0e42 27c0 feb0 e81b 2b21 22c0
00000030: 6912 e986 84d1 3640 536c 3c82 dcb1 31c0
00000040: 041c bf4e 0f23 3dc0 e064 016b 73ab 4740
00000050: 05f9 0edf 5e24 f83f ef71 b675 50a1 2340
00000060: 0bcd 2a12 faa1 03c0 867e fce5 51a0 0cc0
00000070: cbe1 3338 9b6e 2d40 49d4 539b 96a5 2640
00000080: db89 34b5 6a87 38c0 28e1 dd32 c84e 3a40
00000090: b7f6 62b3 7231 5040 2c6d 8c22 2c94 f0bf
000000a0: 4c43 6d7e 1ba2 17c0 5308 1d50 312e 1140
000000b0: 4279 16e6 315e 0ac0 f23a 3440 c020 26c0
000000c0: 5afa 75c3 4915 3340 68f8 a752 edb9 37c0
000000d0: f8b2 ed6f 7602 23c0 e773 f063 5d19 4540
000000e0: dada 8eb9 1a56 05c0 2e84 31a8 fbc4 0140
000000f0: dcc9 3213 fbe9 03c0 b216 3d39 ab74 d8bf
00000100: 330e 12e1 aa18 f5bf 03e2 56e5 1028 f53f
00000110: e473 f95f 0628 0540 b06b 0142 afc5 0ac0
00000120: 0f79 1853 0daa 2340 42f2 0e7c 286a fa3f
00000130: 2803 9264 dc42 0440 a7af 97d5 83e2 0bc0
00000140: cf8f 8109 31f8 e8bf 9b20 17e1 5de9 1c40
00000150: 2efa 440d f3be 20c0 fc82 ec90 be07 febf
00000160: b1af 8959 1717 0dc0 349e 455c 8ff7 2940
00000170: 935b 42cc 3afc b1bf e5f1 7fd8 9608 97bf
00000180: 1391 8633 b685 a8bf a678 b403 eb38 55bf
00000190: 20b0 16ec 1dd7 7a3f 3903 7ffc 062e a6bf
000001a0: ca71 024b a693 abbf e9ad 44ac 6b9c afbf
000001b0: 540f 0692 9902 a9bf
-0.07100479276140154 0.6963349105985529 -12.005592824760502 16.49377023558749 -11.629020114299182 -9.06478202071639 22.818428451444934 -17.69477094626593
-29.136952325494363 47.33945977752751 1.5088795388433607 9.815066984673619 -2.4540902537643254 -3.578281208770764 14.716027981122258 11.323414663298665
-24.5289719823139 26.30774228970509 64.77262577690531 -1.0361749028732659 -5.908308005732419 4.295109988948826 -3.295993611870615 -11.063966757179035
19.083156791976172 -23.726277509697326 -9.50480985428429 42.198162548454825 -2.667043161079488 2.221183122645491 -2.4892484187960076 -0.38212090100965235
-1.3185223380868478 1.3222817381448528 2.6445434091569826 -3.346525684040408 9.832132908570683 1.6509175153761508 2.5326469285067965 -3.4856030165592133
-0.7802968202272441 7.227897183453162 -8.372948088331295 -1.8768907223786178 -3.6362750048774264 12.983515628336228 -0.07025496947095027 -0.022493702854250137
-0.04789513949370607 -0.0012953085959633097 0.006552807696987656 -0.043319910356791565 -0.05386085191387087 -0.061740269450037584 -0.048847960543780516
