hw2/weight.npy (npy, 496 bytes, 1 tensors)

array f8 [46]
00000000: 0493 7875 34e9 f3bf 49e8 afc1 c184 ffbf
00000010: cf8a a795 d2a3 c4bf 8b1c 9ffd 51ee d7bf
00000020: f0c8 9fa4 7890 d33f 18a5 164a 3cdf c0bf
00000030: f1bc ed68 8512 d5bf e8f7 1700 85c4 e33f
00000040: f9ee 8877 3c71 cf3f c45d 691d d89a c23f
00000050: ef68 81f8 5fc3 a43f 0308 9508 e565 e63f
00000060: 3417 03aa e532 b2bf 29a9 9269 cf2c df3f
00000070: d14e f6b3 7f1b c8bf 5b74 7149 b82b b03f
00000080: 5a2e f28a 6eae df3f 2436 1011 9e3e c23f
00000090: 6a6a 6219 9c0d df3f 08ac 3224 53ad e13f
000000a0: f253 f202 ccd7 dc3f b2fa 4595 3362 b43f
000000b0: 170e d907 34db d5bf 4a72 2fb8 902f 673f
000000c0: 35e1 c02a 9c20 e4bf c675 3808 8319 d0bf
000000d0: cdda 68e8 e648 e9bf 0128 f785 be5b bb3f
000000e0: 49cf d68b eb6d f83f 004d 6e4d 08da f63f
000000f0: 5d87 0a13 ec1e ec3f c86d 6d38 4f23 d03f
00000100: 6729 084c b399 ed3f f23b ce66 8597 c63f
00000110: 305e 3567 b9ce ee3f 8d4f 0859 60e0 c03f
00000120: 809f 7f1c 1a53 ccbf 6308 bd97 7be5 8bbf
00000130: d628 f8fa b3b6 a63f a0dc 7fc2 56bb e33f
00000140: e7b2 2de5 a4ec ed3f edc7 8bb4 81c1 d63f
00000150: f3e5 761b 0cfe ea3f 4d9f bb3c 69c2 f03f
00000160: e17f 9c47 9271 dc3f b005 216e 67c4 b73f
-1.2444347943030047 -1.969911343183883 -0.16124946887347 -0.37392091529586285 0.30569282604768855 -0.13181260697937414 -0.32925544020595426 0.617739200766434
0.2456431945482718 0.14535046993363043 0.0405530920840692 0.6999383132572351 -0.0710891285007989 0.4871099978432932 -0.1883391979905498 0.06316711228414944
0.49502147263476604 0.14253593285722943 0.48520567397068837 0.5524078089705435 0.4506711987281157 0.07962343592042023 -0.34150410429376293 0.002830298094961746
-0.6289807162311606 -0.2515571193960934 -0.7901491679429796 0.10686865587845774 1.5268359625305996 1.4282305740969718 0.8787746784112006 0.252155118088663
0.9250122532842341 0.1764990570049743 0.9627348914900207 0.1318474230507686 -0.22128607169656433 -0.01362129742449642 0.044362663637075236 0.6166185187165816
0.9351372219221873 0.3555607092995377 0.843511632577416 1.047463643300904 0.4444318484620436 0.0928406375760662
